Model: "sequential"
_________________________________________________________________
Layer (type)                 Output Shape              Param #   
=================================================================
batch_normalization (BatchNo (None, 224, 224, 3)       12        
_________________________________________________________________
conv2d (Conv2D)              (None, 224, 224, 32)      896       
_________________________________________________________________
conv2d_1 (Conv2D)            (None, 224, 224, 32)      9248      
_________________________________________________________________
max_pooling2d (MaxPooling2D) (None, 112, 112, 32)      0         
_________________________________________________________________
conv2d_2 (Conv2D)            (None, 112, 112, 64)      18496     
_________________________________________________________________
conv2d_3 (Conv2D)            (None, 112, 112, 64)      36928     
_________________________________________________________________
max_pooling2d_1 (MaxPooling2 (None, 56, 56, 64)        0         
_________________________________________________________________
conv2d_4 (Conv2D)            (None, 56, 56, 128)       73856     
_________________________________________________________________
conv2d_5 (Conv2D)            (None, 56, 56, 128)       147584    
_________________________________________________________________
conv2d_6 (Conv2D)            (None, 56, 56, 128)       147584    
_________________________________________________________________
max_pooling2d_2 (MaxPooling2 (None, 28, 28, 128)       0         
_________________________________________________________________
flatten (Flatten)            (None, 100352)            0         
_________________________________________________________________
dense (Dense)                (None, 256)               25690368  
_________________________________________________________________
dropout (Dropout)            (None, 256)               0         
_________________________________________________________________
dense_1 (Dense)              (None, 128)               32896     
_________________________________________________________________
dense_2 (Dense)              (None, 2)                 258       
=================================================================
Total params: 26,158,126
Trainable params: 26,158,120
Non-trainable params: 6
_________________________________________________________________
